Model: "model_1"
__________________________________________________________________________________________________
Layer (type)                    Output Shape         Param #     Connected to
==================================================================================================
input_1 (InputLayer)            (None, 640, 360, 3)  0
__________________________________________________________________________________________________
conv2d_transpose_1 (Conv2DTrans (None, 642, 362, 16) 448         input_1[0][0]
__________________________________________________________________________________________________
conv2d_transpose_2 (Conv2DTrans (None, 644, 364, 16) 1216        input_1[0][0]
__________________________________________________________________________________________________
conv2d_transpose_3 (Conv2DTrans (None, 646, 366, 16) 2368        input_1[0][0]
__________________________________________________________________________________________________
conv2d_transpose_4 (Conv2DTrans (None, 648, 368, 16) 3904        input_1[0][0]
__________________________________________________________________________________________________
batch_normalization_1 (BatchNor (None, 642, 362, 16) 64          conv2d_transpose_1[0][0]
__________________________________________________________________________________________________
batch_normalization_3 (BatchNor (None, 644, 364, 16) 64          conv2d_transpose_2[0][0]
__________________________________________________________________________________________________
batch_normalization_5 (BatchNor (None, 646, 366, 16) 64          conv2d_transpose_3[0][0]
__________________________________________________________________________________________________
batch_normalization_7 (BatchNor (None, 648, 368, 16) 64          conv2d_transpose_4[0][0]
__________________________________________________________________________________________________
leaky_re_lu_1 (LeakyReLU)       (None, 642, 362, 16) 0           batch_normalization_1[0][0]
__________________________________________________________________________________________________
leaky_re_lu_3 (LeakyReLU)       (None, 644, 364, 16) 0           batch_normalization_3[0][0]
__________________________________________________________________________________________________
leaky_re_lu_5 (LeakyReLU)       (None, 646, 366, 16) 0           batch_normalization_5[0][0]
__________________________________________________________________________________________________
leaky_re_lu_7 (LeakyReLU)       (None, 648, 368, 16) 0           batch_normalization_7[0][0]
__________________________________________________________________________________________________
conv2d_1 (Conv2D)               (None, 640, 360, 16) 2320        leaky_re_lu_1[0][0]
__________________________________________________________________________________________________
conv2d_2 (Conv2D)               (None, 640, 360, 16) 6416        leaky_re_lu_3[0][0]
__________________________________________________________________________________________________
conv2d_3 (Conv2D)               (None, 640, 360, 16) 12560       leaky_re_lu_5[0][0]
__________________________________________________________________________________________________
conv2d_4 (Conv2D)               (None, 640, 360, 16) 20752       leaky_re_lu_7[0][0]
__________________________________________________________________________________________________
batch_normalization_2 (BatchNor (None, 640, 360, 16) 64          conv2d_1[0][0]
__________________________________________________________________________________________________
batch_normalization_4 (BatchNor (None, 640, 360, 16) 64          conv2d_2[0][0]
__________________________________________________________________________________________________
batch_normalization_6 (BatchNor (None, 640, 360, 16) 64          conv2d_3[0][0]
__________________________________________________________________________________________________
batch_normalization_8 (BatchNor (None, 640, 360, 16) 64          conv2d_4[0][0]
__________________________________________________________________________________________________
leaky_re_lu_2 (LeakyReLU)       (None, 640, 360, 16) 0           batch_normalization_2[0][0]
__________________________________________________________________________________________________
leaky_re_lu_4 (LeakyReLU)       (None, 640, 360, 16) 0           batch_normalization_4[0][0]
__________________________________________________________________________________________________
leaky_re_lu_6 (LeakyReLU)       (None, 640, 360, 16) 0           batch_normalization_6[0][0]
__________________________________________________________________________________________________
leaky_re_lu_8 (LeakyReLU)       (None, 640, 360, 16) 0           batch_normalization_8[0][0]
__________________________________________________________________________________________________
concatenate_1 (Concatenate)     (None, 640, 360, 64) 0           leaky_re_lu_2[0][0]
                                                                 leaky_re_lu_4[0][0]
                                                                 leaky_re_lu_6[0][0]
                                                                 leaky_re_lu_8[0][0]
__________________________________________________________________________________________________
conv2d_transpose_5 (Conv2DTrans (None, 642, 362, 128 73856       concatenate_1[0][0]
…
__________________________________________________________________________________________________
conv2d_5 (Conv2D)               (None, 320, 180, 128 147584      leaky_re_lu_9[0][0]
__________________________________________________________________________________________________
batch_normalization_10 (BatchNo (None, 320, 180, 128 512         conv2d_5[0][0]
__________________________________________________________________________________________________
leaky_re_lu_10 (LeakyReLU)      (None, 320, 180, 128 0           batch_normalization_10[0][0]
__________________________________________________________________________________________________
conv2d_transpose_6 (Conv2DTrans (None, 322, 182, 32) 36896       leaky_re_lu_10[0][0]
__________________________________________________________________________________________________
conv2d_transpose_7 (Conv2DTrans (None, 324, 184, 32) 102432      leaky_re_lu_10[0][0]
__________________________________________________________________________________________________
conv2d_transpose_8 (Conv2DTrans (None, 326, 186, 32) 200736      leaky_re_lu_10[0][0]
__________________________________________________________________________________________________
conv2d_transpose_9 (Conv2DTrans (None, 328, 188, 32) 331808      leaky_re_lu_10[0][0]
__________________________________________________________________________________________________
batch_normalization_11 (BatchNo (None, 322, 182, 32) 128         conv2d_transpose_6[0][0]
__________________________________________________________________________________________________
batch_normalization_13 (BatchNo (None, 324, 184, 32) 128         conv2d_transpose_7[0][0]
__________________________________________________________________________________________________
batch_normalization_15 (BatchNo (None, 326, 186, 32) 128         conv2d_transpose_8[0][0]
__________________________________________________________________________________________________
batch_normalization_17 (BatchNo (None, 328, 188, 32) 128         conv2d_transpose_9[0][0]
__________________________________________________________________________________________________
leaky_re_lu_11 (LeakyReLU)      (None, 322, 182, 32) 0           batch_normalization_11[0][0]
__________________________________________________________________________________________________
leaky_re_lu_13 (LeakyReLU)      (None, 324, 184, 32) 0           batch_normalization_13[0][0]
__________________________________________________________________________________________________
leaky_re_lu_15 (LeakyReLU)      (None, 326, 186, 32) 0           batch_normalization_15[0][0]
__________________________________________________________________________________________________
leaky_re_lu_17 (LeakyReLU)      (None, 328, 188, 32) 0           batch_normalization_17[0][0]
__________________________________________________________________________________________________
conv2d_6 (Conv2D)               (None, 320, 180, 32) 9248        leaky_re_lu_11[0][0]
__________________________________________________________________________________________________
conv2d_7 (Conv2D)               (None, 320, 180, 32) 25632       leaky_re_lu_13[0][0]
__________________________________________________________________________________________________
conv2d_8 (Conv2D)               (None, 320, 180, 32) 50208       leaky_re_lu_15[0][0]
__________________________________________________________________________________________________
conv2d_9 (Conv2D)               (None, 320, 180, 32) 82976       leaky_re_lu_17[0][0]
__________________________________________________________________________________________________
batch_normalization_12 (BatchNo (None, 320, 180, 32) 128         conv2d_6[0][0]
__________________________________________________________________________________________________
batch_normalization_14 (BatchNo (None, 320, 180, 32) 128         conv2d_7[0][0]
__________________________________________________________________________________________________
batch_normalization_16 (BatchNo (None, 320, 180, 32) 128         conv2d_8[0][0]
__________________________________________________________________________________________________
batch_normalization_18 (BatchNo (None, 320, 180, 32) 128         conv2d_9[0][0]
__________________________________________________________________________________________________
leaky_re_lu_12 (LeakyReLU)      (None, 320, 180, 32) 0           batch_normalization_12[0][0]
__________________________________________________________________________________________________
leaky_re_lu_14 (LeakyReLU)      (None, 320, 180, 32) 0           batch_normalization_14[0][0]
__________________________________________________________________________________________________
leaky_re_lu_16 (LeakyReLU)      (None, 320, 180, 32) 0           batch_normalization_16[0][0]
__________________________________________________________________________________________________
leaky_re_lu_18 (LeakyReLU)      (None, 320, 180, 32) 0           batch_normalization_18[0][0]
__________________________________________________________________________________________________
concatenate_2 (Concatenate)     (None, 320, 180, 128 0           leaky_re_lu_12[0][0]
                                                                 leaky_re_lu_14[0][0]
                                                                 leaky_re_lu_16[0][0]
                                                                 leaky_re_lu_18[0][0]
__________________________________________________________________________________________________
conv2d_transpose_10 (Conv2DTran (None, 322, 182, 256 295168      concatenate_2[0][0]
__________________________________________________________________________________________________
batch_normalization_19 (BatchNo (None, 322, 182, 256 1024        conv2d_transpose_10[0][0]
__________________________________________________________________________________________________
leaky_re_lu_19 (LeakyReLU)      (None, 322, 182, 256 0           batch_normalization_19[0][0]
__________________________________________________________________________________________________
conv2d_10 (Conv2D)              (None, 160, 90, 256) 590080      leaky_re_lu_19[0][0]
__________________________________________________________________________________________________
batch_normalization_20 (BatchNo (None, 160, 90, 256) 1024        conv2d_10[0][0]
__________________________________________________________________________________________________
leaky_re_lu_20 (LeakyReLU)      (None, 160, 90, 256) 0           batch_normalization_20[0][0]
__________________________________________________________________________________________________
conv2d_transpose_11 (Conv2DTran (None, 162, 92, 64)  147520      leaky_re_lu_20[0][0]
__________________________________________________________________________________________________
conv2d_transpose_12 (Conv2DTran (None, 164, 94, 64)  409664      leaky_re_lu_20[0][0]
__________________________________________________________________________________________________
conv2d_transpose_13 (Conv2DTran (None, 166, 96, 64)  802880      leaky_re_lu_20[0][0]
__________________________________________________________________________________________________
conv2d_transpose_14 (Conv2DTran (None, 168, 98, 64)  1327168     leaky_re_lu_20[0][0]
__________________________________________________________________________________________________
batch_normalization_21 (BatchNo (None, 162, 92, 64)  256         conv2d_transpose_11[0][0]
__________________________________________________________________________________________________
batch_normalization_23 (BatchNo (None, 164, 94, 64)  256         conv2d_transpose_12[0][0]
__________________________________________________________________________________________________
batch_normalization_25 (BatchNo (None, 166, 96, 64)  256         conv2d_transpose_13[0][0]
__________________________________________________________________________________________________
batch_normalization_27 (BatchNo (None, 168, 98, 64)  256         conv2d_transpose_14[0][0]
__________________________________________________________________________________________________
leaky_re_lu_21 (LeakyReLU)      (None, 162, 92, 64)  0           batch_normalization_21[0][0]
__________________________________________________________________________________________________
leaky_re_lu_23 (LeakyReLU)      (None, 164, 94, 64)  0           batch_normalization_23[0][0]
__________________________________________________________________________________________________
leaky_re_lu_25 (LeakyReLU)      (None, 166, 96, 64)  0           batch_normalization_25[0][0]
__________________________________________________________________________________________________
leaky_re_lu_27 (LeakyReLU)      (None, 168, 98, 64)  0           batch_normalization_27[0][0]
__________________________________________________________________________________________________
conv2d_11 (Conv2D)              (None, 160, 90, 64)  36928       leaky_re_lu_21[0][0]
__________________________________________________________________________________________________
conv2d_12 (Conv2D)              (None, 160, 90, 64)  102464      leaky_re_lu_23[0][0]
__________________________________________________________________________________________________
conv2d_13 (Conv2D)              (None, 160, 90, 64)  200768      leaky_re_lu_25[0][0]
__________________________________________________________________________________________________
conv2d_14 (Conv2D)              (None, 160, 90, 64)  331840      leaky_re_lu_27[0][0]
__________________________________________________________________________________________________
batch_normalization_22 (BatchNo (None, 160, 90, 64)  256         conv2d_11[0][0]
__________________________________________________________________________________________________
batch_normalization_24 (BatchNo (None, 160, 90, 64)  256         conv2d_12[0][0]
__________________________________________________________________________________________________
batch_normalization_26 (BatchNo (None, 160, 90, 64)  256         conv2d_13[0][0]
__________________________________________________________________________________________________
batch_normalization_28 (BatchNo (None, 160, 90, 64)  256         conv2d_14[0][0]
__________________________________________________________________________________________________
leaky_re_lu_22 (LeakyReLU)      (None, 160, 90, 64)  0           batch_normalization_22[0][0]
__________________________________________________________________________________________________
leaky_re_lu_24 (LeakyReLU)      (None, 160, 90, 64)  0           batch_normalization_24[0][0]
__________________________________________________________________________________________________
leaky_re_lu_26 (LeakyReLU)      (None, 160, 90, 64)  0           batch_normalization_26[0][0]
__________________________________________________________________________________________________
leaky_re_lu_28 (LeakyReLU)      (None, 160, 90, 64)  0           batch_normalization_28[0][0]
__________________________________________________________________________________________________
concatenate_3 (Concatenate)     (None, 160, 90, 256) 0           leaky_re_lu_22[0][0]
                                                                 leaky_re_lu_24[0][0]
                                                                 leaky_re_lu_26[0][0]
                                                                 leaky_re_lu_28[0][0]
__________________________________________________________________________________________________
conv2d_transpose_15 (Conv2DTran (None, 162, 92, 256) 590080      concatenate_3[0][0]
__________________________________________________________________________________________________
batch_normalization_29 (BatchNo (None, 162, 92, 256) 1024        conv2d_transpose_15[0][0]
__________________________________________________________________________________________________
leaky_re_lu_29 (LeakyReLU)      (None, 162, 92, 256) 0           batch_normalization_29[0][0]
__________________________________________________________________________________________________
conv2d_15 (Conv2D)              (None, 80, 45, 256)  590080      leaky_re_lu_29[0][0]
__________________________________________________________________________________________________
batch_normalization_30 (BatchNo (None, 80, 45, 256)  1024        conv2d_15[0][0]
__________________________________________________________________________________________________
leaky_re_lu_30 (LeakyReLU)      (None, 80, 45, 256)  0           batch_normalization_30[0][0]
__________________________________________________________________________________________________
conv2d_transpose_16 (Conv2DTran (None, 82, 47, 64)   147520      leaky_re_lu_30[0][0]
__________________________________________________________________________________________________
conv2d_transpose_17 (Conv2DTran (None, 84, 49, 64)   409664      leaky_re_lu_30[0][0]
__________________________________________________________________________________________________
conv2d_transpose_18 (Conv2DTran (None, 86, 51, 64)   802880      leaky_re_lu_30[0][0]
__________________________________________________________________________________________________
conv2d_transpose_19 (Conv2DTran (None, 88, 53, 64)   1327168     leaky_re_lu_30[0][0]
__________________________________________________________________________________________________
batch_normalization_31 (BatchNo (None, 82, 47, 64)   256         conv2d_transpose_16[0][0]
__________________________________________________________________________________________________
batch_normalization_33 (BatchNo (None, 84, 49, 64)   256         conv2d_transpose_17[0][0]
__________________________________________________________________________________________________
batch_normalization_35 (BatchNo (None, 86, 51, 64)   256         conv2d_transpose_18[0][0]
__________________________________________________________________________________________________
batch_normalization_37 (BatchNo (None, 88, 53, 64)   256         conv2d_transpose_19[0][0]
__________________________________________________________________________________________________
leaky_re_lu_31 (LeakyReLU)      (None, 82, 47, 64)   0           batch_normalization_31[0][0]
__________________________________________________________________________________________________
leaky_re_lu_33 (LeakyReLU)      (None, 84, 49, 64)   0           batch_normalization_33[0][0]
__________________________________________________________________________________________________
leaky_re_lu_35 (LeakyReLU)      (None, 86, 51, 64)   0           batch_normalization_35[0][0]
__________________________________________________________________________________________________
leaky_re_lu_37 (LeakyReLU)      (None, 88, 53, 64)   0           batch_normalization_37[0][0]
__________________________________________________________________________________________________
conv2d_16 (Conv2D)              (None, 80, 45, 64)   36928       leaky_re_lu_31[0][0]
__________________________________________________________________________________________________
conv2d_17 (Conv2D)              (None, 80, 45, 64)   102464      leaky_re_lu_33[0][0]
__________________________________________________________________________________________________
conv2d_18 (Conv2D)              (None, 80, 45, 64)   200768      leaky_re_lu_35[0][0]
__________________________________________________________________________________________________
conv2d_19 (Conv2D)              (None, 80, 45, 64)   331840      leaky_re_lu_37[0][0]
__________________________________________________________________________________________________
batch_normalization_32 (BatchNo (None, 80, 45, 64)   256         conv2d_16[0][0]
__________________________________________________________________________________________________
batch_normalization_34 (BatchNo (None, 80, 45, 64)   256         conv2d_17[0][0]
__________________________________________________________________________________________________
batch_normalization_36 (BatchNo (None, 80, 45, 64)   256         conv2d_18[0][0]
__________________________________________________________________________________________________
batch_normalization_38 (BatchNo (None, 80, 45, 64)   256         conv2d_19[0][0]
__________________________________________________________________________________________________
leaky_re_lu_32 (LeakyReLU)      (None, 80, 45, 64)   0           batch_normalization_32[0][0]
__________________________________________________________________________________________________
leaky_re_lu_34 (LeakyReLU)      (None, 80, 45, 64)   0           batch_normalization_34[0][0]
__________________________________________________________________________________________________
leaky_re_lu_36 (LeakyReLU)      (None, 80, 45, 64)   0           batch_normalization_36[0][0]
__________________________________________________________________________________________________
leaky_re_lu_38 (LeakyReLU)      (None, 80, 45, 64)   0           batch_normalization_38[0][0]
__________________________________________________________________________________________________
concatenate_4 (Concatenate)     (None, 80, 45, 256)  0           leaky_re_lu_32[0][0]
                                                                 leaky_re_lu_34[0][0]
                                                                 leaky_re_lu_36[0][0]
                                                                 leaky_re_lu_38[0][0]
__________________________________________________________________________________________________
conv2d_transpose_20 (Conv2DTran (None, 162, 92, 256) 1048832     concatenate_4[0][0]
__________________________________________________________________________________________________
batch_normalization_39 (BatchNo (None, 162, 92, 256) 1024        conv2d_transpose_20[0][0]
__________________________________________________________________________________________________
leaky_re_lu_39 (LeakyReLU)      (None, 162, 92, 256) 0           batch_normalization_39[0][0]
__________________________________________________________________________________________________
conv2d_20 (Conv2D)              (None, 160, 90, 256) 590080      leaky_re_lu_39[0][0]
__________________________________________________________________________________________________
batch_normalization_40 (BatchNo (None, 160, 90, 256) 1024        conv2d_20[0][0]
__________________________________________________________________________________________________
leaky_re_lu_40 (LeakyReLU)      (None, 160, 90, 256) 0           batch_normalization_40[0][0]
__________________________________________________________________________________________________
conv2d_transpose_21 (Conv2DTran (None, 162, 92, 64)  147520      leaky_re_lu_40[0][0]
__________________________________________________________________________________________________
conv2d_transpose_22 (Conv2DTran (None, 164, 94, 64)  409664      leaky_re_lu_40[0][0]
__________________________________________________________________________________________________
conv2d_transpose_23 (Conv2DTran (None, 166, 96, 64)  802880      leaky_re_lu_40[0][0]
__________________________________________________________________________________________________
conv2d_transpose_24 (Conv2DTran (None, 168, 98, 64)  1327168     leaky_re_lu_40[0][0]
__________________________________________________________________________________________________
batch_normalization_41 (BatchNo (None, 162, 92, 64)  256         conv2d_transpose_21[0][0]
__________________________________________________________________________________________________
batch_normalization_43 (BatchNo (None, 164, 94, 64)  256         conv2d_transpose_22[0][0]
__________________________________________________________________________________________________
batch_normalization_45 (BatchNo (None, 166, 96, 64)  256         conv2d_transpose_23[0][0]
__________________________________________________________________________________________________
batch_normalization_47 (BatchNo (None, 168, 98, 64)  256         conv2d_transpose_24[0][0]
__________________________________________________________________________________________________
leaky_re_lu_41 (LeakyReLU)      (None, 162, 92, 64)  0           batch_normalization_41[0][0]
__________________________________________________________________________________________________
leaky_re_lu_43 (LeakyReLU)      (None, 164, 94, 64)  0           batch_normalization_43[0][0]
__________________________________________________________________________________________________
leaky_re_lu_45 (LeakyReLU)      (None, 166, 96, 64)  0           batch_normalization_45[0][0]
__________________________________________________________________________________________________
leaky_re_lu_47 (LeakyReLU)      (None, 168, 98, 64)  0           batch_normalization_47[0][0]
__________________________________________________________________________________________________
conv2d_21 (Conv2D)              (None, 160, 90, 64)  36928       leaky_re_lu_41[0][0]
__________________________________________________________________________________________________
conv2d_22 (Conv2D)              (None, 160, 90, 64)  102464      leaky_re_lu_43[0][0]
__________________________________________________________________________________________________
conv2d_23 (Conv2D)              (None, 160, 90, 64)  200768      leaky_re_lu_45[0][0]
__________________________________________________________________________________________________
conv2d_24 (Conv2D)              (None, 160, 90, 64)  331840      leaky_re_lu_47[0][0]
__________________________________________________________________________________________________
batch_normalization_42 (BatchNo (None, 160, 90, 64)  256         conv2d_21[0][0]
__________________________________________________________________________________________________
batch_normalization_44 (BatchNo (None, 160, 90, 64)  256         conv2d_22[0][0]
__________________________________________________________________________________________________
batch_normalization_46 (BatchNo (None, 160, 90, 64)  256         conv2d_23[0][0]
__________________________________________________________________________________________________
batch_normalization_48 (BatchNo (None, 160, 90, 64)  256         conv2d_24[0][0]
__________________________________________________________________________________________________
leaky_re_lu_42 (LeakyReLU)      (None, 160, 90, 64)  0           batch_normalization_42[0][0]
__________________________________________________________________________________________________
leaky_re_lu_44 (LeakyReLU)      (None, 160, 90, 64)  0           batch_normalization_44[0][0]
__________________________________________________________________________________________________
leaky_re_lu_46 (LeakyReLU)      (None, 160, 90, 64)  0           batch_normalization_46[0][0]
__________________________________________________________________________________________________
leaky_re_lu_48 (LeakyReLU)      (None, 160, 90, 64)  0           batch_normalization_48[0][0]
__________________________________________________________________________________________________
concatenate_5 (Concatenate)     (None, 160, 90, 256) 0           leaky_re_lu_42[0][0]
                                                                 leaky_re_lu_44[0][0]
                                                                 leaky_re_lu_46[0][0]
                                                                 leaky_re_lu_48[0][0]
__________________________________________________________________________________________________
add_1 (Add)                     (None, 160, 90, 256) 0           concatenate_3[0][0]
                                                                 concatenate_5[0][0]
__________________________________________________________________________________________________
conv2d_transpose_25 (Conv2DTran (None, 322, 182, 128 524416      add_1[0][0]
__________________________________________________________________________________________________
batch_normalization_49 (BatchNo (None, 322, 182, 128 512         conv2d_transpose_25[0][0]
…
__________________________________________________________________________________________________
conv2d_25 (Conv2D)              (None, 320, 180, 128 147584      leaky_re_lu_49[0][0]
__________________________________________________________________________________________________
batch_normalization_50 (BatchNo (None, 320, 180, 128 512         conv2d_25[0][0]
__________________________________________________________________________________________________
leaky_re_lu_50 (LeakyReLU)      (None, 320, 180, 128 0           batch_normalization_50[0][0]
__________________________________________________________________________________________________
conv2d_transpose_26 (Conv2DTran (None, 322, 182, 32) 36896       leaky_re_lu_50[0][0]
__________________________________________________________________________________________________
conv2d_transpose_27 (Conv2DTran (None, 324, 184, 32) 102432      leaky_re_lu_50[0][0]
__________________________________________________________________________________________________
conv2d_transpose_28 (Conv2DTran (None, 326, 186, 32) 200736      leaky_re_lu_50[0][0]
__________________________________________________________________________________________________
conv2d_transpose_29 (Conv2DTran (None, 328, 188, 32) 331808      leaky_re_lu_50[0][0]
__________________________________________________________________________________________________
batch_normalization_51 (BatchNo (None, 322, 182, 32) 128         conv2d_transpose_26[0][0]
__________________________________________________________________________________________________
batch_normalization_53 (BatchNo (None, 324, 184, 32) 128         conv2d_transpose_27[0][0]
__________________________________________________________________________________________________
batch_normalization_55 (BatchNo (None, 326, 186, 32) 128         conv2d_transpose_28[0][0]
__________________________________________________________________________________________________
batch_normalization_57 (BatchNo (None, 328, 188, 32) 128         conv2d_transpose_29[0][0]
__________________________________________________________________________________________________
leaky_re_lu_51 (LeakyReLU)      (None, 322, 182, 32) 0           batch_normalization_51[0][0]
__________________________________________________________________________________________________
leaky_re_lu_53 (LeakyReLU)      (None, 324, 184, 32) 0           batch_normalization_53[0][0]
__________________________________________________________________________________________________
leaky_re_lu_55 (LeakyReLU)      (None, 326, 186, 32) 0           batch_normalization_55[0][0]
__________________________________________________________________________________________________
leaky_re_lu_57 (LeakyReLU)      (None, 328, 188, 32) 0           batch_normalization_57[0][0]
__________________________________________________________________________________________________
conv2d_26 (Conv2D)              (None, 320, 180, 32) 9248        leaky_re_lu_51[0][0]
__________________________________________________________________________________________________
conv2d_27 (Conv2D)              (None, 320, 180, 32) 25632       leaky_re_lu_53[0][0]
__________________________________________________________________________________________________
conv2d_28 (Conv2D)              (None, 320, 180, 32) 50208       leaky_re_lu_55[0][0]
__________________________________________________________________________________________________
conv2d_29 (Conv2D)              (None, 320, 180, 32) 82976       leaky_re_lu_57[0][0]
__________________________________________________________________________________________________
batch_normalization_52 (BatchNo (None, 320, 180, 32) 128         conv2d_26[0][0]
__________________________________________________________________________________________________
batch_normalization_54 (BatchNo (None, 320, 180, 32) 128         conv2d_27[0][0]
__________________________________________________________________________________________________
batch_normalization_56 (BatchNo (None, 320, 180, 32) 128         conv2d_28[0][0]
__________________________________________________________________________________________________
batch_normalization_58 (BatchNo (None, 320, 180, 32) 128         conv2d_29[0][0]
__________________________________________________________________________________________________
leaky_re_lu_52 (LeakyReLU)      (None, 320, 180, 32) 0           batch_normalization_52[0][0]
__________________________________________________________________________________________________
leaky_re_lu_54 (LeakyReLU)      (None, 320, 180, 32) 0           batch_normalization_54[0][0]
__________________________________________________________________________________________________
leaky_re_lu_56 (LeakyReLU)      (None, 320, 180, 32) 0           batch_normalization_56[0][0]
__________________________________________________________________________________________________
leaky_re_lu_58 (LeakyReLU)      (None, 320, 180, 32) 0           batch_normalization_58[0][0]
__________________________________________________________________________________________________
concatenate_6 (Concatenate)     (None, 320, 180, 128 0           leaky_re_lu_52[0][0]
                                                                 leaky_re_lu_54[0][0]
                                                                 leaky_re_lu_56[0][0]
                                                                 leaky_re_lu_58[0][0]
__________________________________________________________________________________________________
add_2 (Add)                     (None, 320, 180, 128 0           concatenate_2[0][0]
                                                                 concatenate_6[0][0]
__________________________________________________________________________________________________
conv2d_transpose_30 (Conv2DTran (None, 642, 362, 64) 131136      add_2[0][0]
__________________________________________________________________________________________________
batch_normalization_59 (BatchNo (None, 642, 362, 64) 256         conv2d_transpose_30[0][0]
__________________________________________________________________________________________________
leaky_re_lu_59 (LeakyReLU)      (None, 642, 362, 64) 0           batch_normalization_59[0][0]
__________________________________________________________________________________________________
conv2d_30 (Conv2D)              (None, 640, 360, 64) 36928       leaky_re_lu_59[0][0]
__________________________________________________________________________________________________
batch_normalization_60 (BatchNo (None, 640, 360, 64) 256         conv2d_30[0][0]
__________________________________________________________________________________________________
leaky_re_lu_60 (LeakyReLU)      (None, 640, 360, 64) 0           batch_normalization_60[0][0]
__________________________________________________________________________________________________
conv2d_transpose_31 (Conv2DTran (None, 642, 362, 16) 9232        leaky_re_lu_60[0][0]
__________________________________________________________________________________________________
conv2d_transpose_32 (Conv2DTran (None, 644, 364, 16) 25616       leaky_re_lu_60[0][0]
__________________________________________________________________________________________________
conv2d_transpose_33 (Conv2DTran (None, 646, 366, 16) 50192       leaky_re_lu_60[0][0]
__________________________________________________________________________________________________
conv2d_transpose_34 (Conv2DTran (None, 648, 368, 16) 82960       leaky_re_lu_60[0][0]
__________________________________________________________________________________________________
batch_normalization_61 (BatchNo (None, 642, 362, 16) 64          conv2d_transpose_31[0][0]
__________________________________________________________________________________________________
batch_normalization_63 (BatchNo (None, 644, 364, 16) 64          conv2d_transpose_32[0][0]
__________________________________________________________________________________________________
batch_normalization_65 (BatchNo (None, 646, 366, 16) 64          conv2d_transpose_33[0][0]
__________________________________________________________________________________________________
batch_normalization_67 (BatchNo (None, 648, 368, 16) 64          conv2d_transpose_34[0][0]
__________________________________________________________________________________________________
leaky_re_lu_61 (LeakyReLU)      (None, 642, 362, 16) 0           batch_normalization_61[0][0]
__________________________________________________________________________________________________
leaky_re_lu_63 (LeakyReLU)      (None, 644, 364, 16) 0           batch_normalization_63[0][0]
__________________________________________________________________________________________________
leaky_re_lu_65 (LeakyReLU)      (None, 646, 366, 16) 0           batch_normalization_65[0][0]
__________________________________________________________________________________________________
leaky_re_lu_67 (LeakyReLU)      (None, 648, 368, 16) 0           batch_normalization_67[0][0]
__________________________________________________________________________________________________
conv2d_31 (Conv2D)              (None, 640, 360, 16) 2320        leaky_re_lu_61[0][0]
__________________________________________________________________________________________________
conv2d_32 (Conv2D)              (None, 640, 360, 16) 6416        leaky_re_lu_63[0][0]
__________________________________________________________________________________________________
conv2d_33 (Conv2D)              (None, 640, 360, 16) 12560       leaky_re_lu_65[0][0]
__________________________________________________________________________________________________
conv2d_34 (Conv2D)              (None, 640, 360, 16) 20752       leaky_re_lu_67[0][0]
__________________________________________________________________________________________________
batch_normalization_62 (BatchNo (None, 640, 360, 16) 64          conv2d_31[0][0]
__________________________________________________________________________________________________
batch_normalization_64 (BatchNo (None, 640, 360, 16) 64          conv2d_32[0][0]
__________________________________________________________________________________________________
batch_normalization_66 (BatchNo (None, 640, 360, 16) 64          conv2d_33[0][0]
__________________________________________________________________________________________________
batch_normalization_68 (BatchNo (None, 640, 360, 16) 64          conv2d_34[0][0]
__________________________________________________________________________________________________
leaky_re_lu_62 (LeakyReLU)      (None, 640, 360, 16) 0           batch_normalization_62[0][0]
__________________________________________________________________________________________________
leaky_re_lu_64 (LeakyReLU)      (None, 640, 360, 16) 0           batch_normalization_64[0][0]
__________________________________________________________________________________________________
leaky_re_lu_66 (LeakyReLU)      (None, 640, 360, 16) 0           batch_normalization_66[0][0]
__________________________________________________________________________________________________
leaky_re_lu_68 (LeakyReLU)      (None, 640, 360, 16) 0           batch_normalization_68[0][0]
__________________________________________________________________________________________________
concatenate_7 (Concatenate)     (None, 640, 360, 64) 0           leaky_re_lu_62[0][0]
                                                                 leaky_re_lu_64[0][0]
                                                                 leaky_re_lu_66[0][0]
                                                                 leaky_re_lu_68[0][0]
__________________________________________________________________________________________________
add_3 (Add)                     (None, 640, 360, 64) 0           concatenate_1[0][0]
                                                                 concatenate_7[0][0]
__________________________________________________________________________________________________
conv2d_transpose_35 (Conv2DTran (None, 1282, 722, 32 32800       add_3[0][0]
__________________________________________________________________________________________________
batch_normalization_69 (BatchNo (None, 1282, 722, 32 128         conv2d_transpose_35[0][0]
…
concatenate_8 (Concatenate)     (None, 1280, 720, 64 0           leaky_re_lu_72[0][0]
                                                                 leaky_re_lu_74[0][0]
                                                                 leaky_re_lu_76[0][0]
                                                                 leaky_re_lu_78[0][0]
__________________________________________________________________________________________________
conv2d_transpose_40 (Conv2DTran (None, 1290, 730, 32 247840      concatenate_8[0][0]
__________________________________________________________________________________________________
conv2d_transpose_41 (Conv2DTran (None, 648, 368, 32) 165920      add_3[0][0]
__________________________________________________________________________________________________
conv2d_transpose_42 (Conv2DTran (None, 326, 186, 32) 200736      add_2[0][0]
__________________________________________________________________________________________________
conv2d_transpose_43 (Conv2DTran (None, 164, 94, 32)  204832      add_1[0][0]
__________________________________________________________________________________________________
conv2d_transpose_44 (Conv2DTran (None, 82, 47, 32)   73760       concatenate_4[0][0]
__________________________________________________________________________________________________
batch_normalization_79 (BatchNo (None, 1290, 730, 32 128         conv2d_transpose_40[0][0]
__________________________________________________________________________________________________
batch_normalization_80 (BatchNo (None, 648, 368, 32) 128         conv2d_transpose_41[0][0]
__________________________________________________________________________________________________
batch_normalization_81 (BatchNo (None, 326, 186, 32) 128         conv2d_transpose_42[0][0]
__________________________________________________________________________________________________
batch_normalization_82 (BatchNo (None, 164, 94, 32)  128         conv2d_transpose_43[0][0]
__________________________________________________________________________________________________
batch_normalization_83 (BatchNo (None, 82, 47, 32)   128         conv2d_transpose_44[0][0]
__________________________________________________________________________________________________
leaky_re_lu_79 (LeakyReLU)      (None, 1290, 730, 32 0           batch_normalization_79[0][0]
__________________________________________________________________________________________________
leaky_re_lu_80 (LeakyReLU)      (None, 648, 368, 32) 0           batch_normalization_80[0][0]
__________________________________________________________________________________________________
leaky_re_lu_81 (LeakyReLU)      (None, 326, 186, 32) 0           batch_normalization_81[0][0]
__________________________________________________________________________________________________
leaky_re_lu_82 (LeakyReLU)      (None, 164, 94, 32)  0           batch_normalization_82[0][0]
__________________________________________________________________________________________________
leaky_re_lu_83 (LeakyReLU)      (None, 82, 47, 32)   0           batch_normalization_83[0][0]
__________________________________________________________________________________________________
conv2d_40 (Conv2D)              (None, 1280, 720, 3) 11619       leaky_re_lu_79[0][0]
__________________________________________________________________________________________________
conv2d_41 (Conv2D)              (None, 640, 360, 3)  7779        leaky_re_lu_80[0][0]
__________________________________________________________________________________________________
conv2d_42 (Conv2D)              (None, 320, 180, 3)  4707        leaky_re_lu_81[0][0]
__________________________________________________________________________________________________
conv2d_43 (Conv2D)              (None, 160, 90, 3)   2403        leaky_re_lu_82[0][0]
__________________________________________________________________________________________________
conv2d_44 (Conv2D)              (None, 80, 45, 3)    867         leaky_re_lu_83[0][0]
==================================================================================================
Total params: 17,891,343
Trainable params: 17,881,679
Non-trainable params: 9,664
__________________________________________________________________________________________________
